model.pth (torch, 30796 bytes, 1 tensors)

fc1.weight f4 [1, 7326]
0	0xbd0a81c5	-0.033815164
1	0xbf320fd7	-0.6955542
2	0x3de3a91b	0.11116239
3	0xbe212bc6	-0.15739354
4	0x3da2808c	0.079346746
5	0x3c9234cc	0.017847441
6	0x3cbbc462	0.022920791
7	0xbe18387e	-0.148653
8	0xbe2450b9	-0.16046418
9	0x3cfdf2fe	0.030999657
10	0xbd1104bf	-0.035404917
11	0xbcc7725e	-0.024346527
12	0xbd9848e5	-0.074357785
13	0x3d58ade9	0.05290023
14	0xbb22d7c5	-0.0024847847
15	0xbe8897a9	-0.26678208
16	0xbd307ab0	-0.043085754
17	0x3d45fa7e	0.04833459
18	0x3db3235d	0.087469794
19	0x3d04cfe9	0.03242484
20	0xbe1a45d1	-0.15065695
21	0xbccaba00	-0.024746895
22	0x3c7844a0	0.01515308
23	0xbd84f675	-0.064923204
24	0xbe762cfb	-0.24040596
25	0xbca60610	-0.020266563
26	0x3e1275d8	0.14302766
27	0xbe2b0857	-0.167024
28	0x3b8e87a0	0.004349664
29	0x3d57c464	0.052677527
30	0xbd109f56	-0.035308205
31	0xbe865199	-0.2623413
32	0x3d85c1d2	0.06531109
33	0x3cf110c7	0.029426945
34	0x3e3e0510	0.18556619
35	0xbd46647a	-0.048435666
36	0xbeaf8640	-0.34282112
37	0xbc5da0fb	-0.01352715
38	0x3b94ec63	0.004544781
39	0xbde6d493	-0.11271014
40	0x3e555045	0.20831402
41	0x3a9b0cf7	0.0011829425
42	0xbe8e24c8	-0.27762437
43	0x3dcbc2f4	0.09949294
44	0xbd51895c	-0.051156387
45	0xbdce3aff	-0.10069846
46	0xbd465903	-0.048424732
47	0xbe2b6545	-0.1673785
48	0xbe0c9269	-0.13727726
49	0xbc2e20b5	-0.010627915
50	0xbd9a6d6b	-0.07540401
51	0xbd1291b7	-0.035783496
52	0xbcd947ad	-0.026523435
53	0xbdcafd3e	-0.09911583
54	0xbd3bd9b1	-0.045861904
55	0xbd933fcc	-0.07189903
56	0xbe32198d	-0.1739256
57	0x3d0e94d7	0.034809913
58	0x3e0d6ce3	0.13811068
59	0xbd8a43ac	-0.06751189
60	0xbf1f1be0	-0.6215191
61	0xbe11d4bc	-0.14241308
62	0x3e063188	0.13104832
63	0xbe697e13	-0.22802
64	0x3e65ed48	0.22453797
65	0xbe01c2fe	-0.1267204
66	0x3d1dbab9	0.03850815
67	0xbe26af9b	-0.16277926
68	0xbd69b3d7	-0.057056274
69	0xbdb53285	-0.088475265
70	0xbe181977	-0.14853464
71	0x3c60d994	0.01372375
72	0xbd1a414d	-0.037659932
73	0x3a81368d	0.0009858176
74	0xbe4a24bc	-0.19740576
75	0xbc206185	-0.0097888755
76	0x3d81951c	0.063272685
77	0xbc598404	-0.013276104
78	0xbd1fda49	-0.039026532
79	0x3d91ec34	0.0712513
80	0x3d0fd8a0	0.0351187
81	0xbe615a82	-0.22007182
82	0xbe150845	-0.14553936
83	0xbebb0771	-0.36529115
84	0x3e104a0d	0.14090748
85	0x3da682a5	0.08130387
86	0xbf00eb19	-0.5035873
87	0xbe026dda	-0.12737218
88	0x3e1a0cd8	0.15043962
89	0x3d66a8ef	0.05631345
90	0xbbd19063	-0.006395386
91	0x3e020122	0.12695745
92	0x3d8ee2e0	0.06976867
93	0x3cf364b8	0.029711112
94	0xbe8d47ea	-0.2759393
95	0xbcc59efc	-0.024123661
96	0x3d8a7c65	0.067620076
97	0xbd831dff	-0.06402206
98	0xbdf2b6ce	-0.118512735
99	0xbdf7cd25	-0.12099675
100	0x3e0a0fb4	0.13482553
101	0xbe9619d6	-0.29316586
102	0x3efd5e01	0.49485782
103	0x3d8693d6	0.06571166
104	0xbe8b1f66	-0.27172393
105	0xbd2c6e30	-0.04209727
106	0xbeaccac4	-0.33748448
107	0xbd061f23	-0.032744538
108	0xbe0a9847	-0.13534652
109	0x3d9a641e	0.07538627
110	0x3dc04021	0.093872316
111	0x3d7d537b	0.06184719
112	0xbe30bfb3	-0.17260627
113	0xbd1f7216	-0.03892716
114	0x3e1a6441	0.15077306
115	0xbea63412	-0.32461601
116	0xbd1dc42b	-0.03851716
117	0xbe1ea1f3	-0.15491466
118	0xbd1f8d79	-0.03895328
119	0x3dd9d397	0.10636061
120	0xbe6ee4a9	-0.23329414
121	0x3c802aba	0.015645374
122	0xbdc90249	-0.09814889
123	0xbdab7215	-0.08371369
124	0xbe9eff78	-0.31054282
125	0x3cea4065	0.028595159
126	0x3d843c42	0.06456806
127	0x3e48d493	0.1961234
128	0xbe257571	-0.16158082
129	0xbe788a96	-0.24271616
130	0x3da720a6	0.08160524
131	0xbe864a86	-0.26228732
132	0x3e41651a	0.18886223
133	0xbede282d	-0.43390027
134	0x3a41b1b6	0.0007388847
135	0xbe631482	-0.22175792
136	0x3e1c78c2	0.1528044
137	0xbc22c9d2	-0.009935813
138	0x3cab1c31	0.020887466
139	0xbecf7fe6	-0.40527266
140	0xbe2dd3cd	-0.16975327
141	0xbdad92de	-0.08475278
142	0x3dd2ded7	0.102964096
143	0x3ba71d4f	0.0050999294
144	0xbe8c5788	-0.2741053
145	0xbdac5841	-0.084152706
146	0xbdbe4ae6	-0.092916295
147	0x3d6f35c1	0.058400873
148	0xbe1f60f3	-0.15564327
149	0xbd22f84c	-0.039787576
150	0x3d3f91e0	0.046769977
151	0xbbf4bb76	-0.007468636
152	0xbdce6778	-0.10078329
153	0x3c0cf08c	0.008602273
154	0xbd4e832b	-0.05041806
155	0x3d6fed1f	0.058575746
156	0xbd897482	-0.06711675
157	0x3de6abb5	0.11263219
158	0x3db87b4c	0.09007892
159	0x3d07d047	0.033157613
160	0x3e17d38d	0.14826794
161	0xbe2cfdbc	-0.16893667
162	0xbe90ffa6	-0.28320044
163	0x3db1b461	0.08676983
164	0xbda654a9	-0.081216164
165	0xbd791f74	-0.06082101
166	0xbd6abc81	-0.057308678
167	0xbde19bb4	-0.11016026
168	0xbb8afa53	-0.0042412668
169	0x3e520498	0.20509565
170	0x3d206b21	0.039164666
171	0x3ddb1fd0	0.10699427
172	0xbe1871bb	-0.14887135
173	0xbd3b4e5a	-0.04572902
174	0xbd8a6c0f	-0.06758892
175	0x3d05491d	0.03254043
176	0x3e017158	0.12640893
177	0x3daf1aac	0.08550009
178	0xbd5b6181	-0.053559784
179	0x3f0219f4	0.5082085
180	0xbe9c12b0	-0.30483007
181	0xbda61cd2	-0.08110966
182	0xbcc3a8c5	-0.023884187
183	0x3dda509f	0.106599085
184	0xbe83e52e	-0.25760788
185	0xbe0ca741	-0.13735677
186	0xbf422890	-0.75843143
187	0xbe2c280f	-0.16812156
188	0x3f12976d	0.5726231
189	0xbe247433	-0.16059951
190	0x3d95c318	0.07312602
191	0x3e55ff92	0.20898274
192	0xbe5742e8	-0.21021616
193	0xbd2ab3eb	-0.04167549
194	0x3df8f41f	0.121559374
195	0x3f3a7c48	0.7284589
196	0x3ccebf6f	0.025237767
197	0x3df5f297	0.12009161
198	0xbd4391e0	-0.04774654
199	0xbef38776	-0.47564286
200	0xbe90108d	-0.28137627
201	0xbee086ba	-0.43852788
202	0xbd2b6939	-0.041848395
203	0x3dd77660	0.10520625
204	0xbda0fe04	-0.0786095
205	0xbdace71a	-0.084425166
206	0xbea51999	-0.32246092
207	0xbdcba0d5	-0.09942786
208	0x3dcd9b88	0.10039431
209	0xbd626a8f	-0.055277403
210	0x3c86d5ac	0.016459309
211	0x3d1845b3	0.037175845
212	0xbcfb9c52	-0.030714188
213	0x3e27e017	0.16394077
214	0x3e07675b	0.1322302
215	0x3d2e0da0	0.042493463
216	0xbd2ae2df	-0.041720267
217	0xbd8c0ac4	-0.06837991
218	0xbdf13ce8	-0.11779195
219	0x3cda05e1	0.026614131
220	0xbd9eb0db	-0.07748576
221	0x3e0ae474	0.1356371
222	0x3d04bc53	0.032406162
223	0x3e24e45e	0.1610274
224	0x3dc61c9b	0.09673425
225	0x3ebd9f92	0.37035805
226	0xbc77f823	-0.015134844
227	0xbd8c396c	-0.0684689
228	0xbd022805	-0.031776447
229	0xbe8c5b6a	-0.27413493
230	0xbb086974	-0.0020814808
231	0xbe117068	-0.14203036
232	0xbc8315bf	-0.01600158
233	0xbd453df0	-0.04815477
234	0xbd52ce54	-0.0514663
235	0x3d4b002e	0.04956072
236	0xbde6745d	-0.11252663
237	0xbe65f808	-0.22457898
238	0x3e433221	0.19062091
239	0xbe34d3d6	-0.17658934
240	0xbea0576a	-0.31316692
241	0x3e34ac48	0.17643845
242	0xbe8e16cd	-0.2775177
243	0x3da26d7b	0.07931038
244	0xbc8abec8	-0.016936675
245	0x3c8e2790	0.01735285
246	0xbe21a91d	-0.15787168
247	0x3e90e4e3	0.28299627
248	0xbc960d7f	-0.018316982
249	0x3cb6938e	0.022287156
250	0x3d36169b	0.044455152
251	0x3d9e34c8	0.07724911
252	0x3dd9cda6	0.106349275
253	0x3df7ecdf	0.121057265
254	0xbf142434	-0.5786774
255	0xbda0f57c	-0.078593224
